examples/MLP/mlp_fashionmnist.pth (torch, 974508 bytes, 8 tensors)

network.0.weight f4 [256, 784]
000000 c6 da 99 3d a3 4d 9f 3d 6f 56 36 3d 28 25 aa 3d
       0.07512431 0.0777848 0.044516023 0.08307868
000010 a1 c5 7c 3d 4e 92 a1 3d 07 61 14 3b 55 97 fb 3c
       0.06171191 0.078892335 0.002264084 0.03071181
000020 d1 ed e2 3d 36 2c bb 3d 28 65 b7 3d 1e db 01 3c
       0.11080516 0.09139292 0.08954841 0.007925777
000030 f3 3f c6 3c 2b 9b 46 be 1a bb 59 be 8f c8 fb bd
       0.024200415 -0.1939513 -0.2126278 -0.12294113
000040 a1 de c3 bd 2c a7 9d bd 3a f0 a0 3c e6 15 b3 3b
       -0.095639475 -0.07697901 0.019645799 0.005465257
000050 a1 82 48 bd af e5 f8 bb 37 49 a8 3c 55 cd 92 3d
       -0.048952702 -0.00759574 0.020542724 0.0716807
000060 b2 12 98 3c 3f 69 e1 3c a2 19 19 3d 93 7d ff 3c
       0.018563602 0.027516006 0.03737796 0.031187808
000070 4f 0a 54 3d 0e b2 3f 3c 70 ab b4 3d b2 02 f6 3c
       0.051767644 0.011700166 0.088217616 0.030030582
000080 2a af f7 3d ef f4 6b 3d 8c 49 84 3d 73 82 05 3e
       0.12093957 0.057606634 0.064593405 0.13038044
000090 61 2d cb 3d 27 49 01 be 08 e0 8b be a4 6f 72 be
       0.09920765 -0.12625562 -0.2731936 -0.236754
0000a0 af 64 ec 3d c9 b9 ab bd be a7 4e bd 37 f0 ab 3d
       0.11542641 -0.08385045 -0.05045294 0.08395427
0000b0 d5 7e 25 be ac ab cc be 78 e7 98 be dd 1c 09 bd
       -0.16161664 -0.39974725 -0.29864097 -0.03347479
0000c0 93 b9 d3 3d 4e 92 a8 bb c9 88 45 bd 38 76 5c bc
       0.1033813 -0.005144394 -0.04822615 -0.01345592
0000d0 f4 96 13 bc 10 5f 61 3d 40 d0 1e 3d 6a fa 85 3d
       -0.009008158 0.0550223 0.03877282 0.06541903
0000e0 48 58 5d 3d 2f c2 15 3d d1 00 71 3d be 96 1b 3d
       0.05403927 0.03656214 0.05883867 0.037985556
0000f0 4b 9b a5 3d 0f 05 ae 3d 31 47 5b 3e 33 0c 47 3e
       0.080862604 0.084970586 0.21413876 0.19438247
000100 43 dd 03 3e 0b 7b 3e bc 62 b9 07 3e 10 dc 3c bb
       0.12877373 -0.011626015 0.13254312 -0.002881769
000110 1e af b0 bb 87 10 07 be 7e 7c 01 be 2d 5f c0 bd
       -0.0053919693 -0.13189898 -0.12645146 -0.09393153
000120 96 2d c4 3b 7b a0 41 bd c2 6d a4 bd d7 96 30 3c
       0.0059868796 -0.047272187 -0.08028747 0.0107781505
000130 d2 b4 fb 3d 31 40 41 3e 17 d0 ed 3d 37 af 4a 3d
       0.12290348 0.18872143 0.116119556 0.049483504
000140 95 db b2 3b 00 70 ab bc 6a cc 32 3d 03 fe e6 3c
       0.005458305 -0.02092743 0.043651976 0.028197294
000150 69 50 73 3d dd 84 27 3c b1 21 11 3d 3d b4 8f 3b
       0.059402857 0.010224548 0.03543252 0.0043854997
000160 56 e8 09 3d a0 2a 0d 3e c3 c9 52 3e 52 94 37 3e
       0.03366884 0.13785791 0.20584778 0.17927673
000170 4a e9 27 3e da cb ca bb aa f2 d2 bd 93 a6 fd bd
       0.16397586 -0.006188852 -0.10300191 -0.12385287
000180 b8 1e 7d 3d 6d 68 6c bd 7a 7f 09 be b1 91 88 bd
       0.061796874 -0.057716776 -0.13427535 -0.066684134
000190 18 1d 19 bd 08 a3 a6 bd ad c1 28 be 1c c8 32 3c
       -0.03738126 -0.081365645 -0.16480131 0.010911968
0001a0 0e 60 0a 3e 8b 7e 3a 3e c0 7d bc 3d d0 50 45 3d
       0.13513204 0.18212335 0.092036724 0.048172772
0001b0 0b f3 03 b9 24 a1 4f bd 84 40 59 3d fa 2d 49 3d
       -0.00012583674 -0.050690785 0.053040043 0.049116112
0001c0 f9 33 32 3d 5c e5 d2 bc 01 34 73 bc d6 fb 17 3c
       0.043506596 -0.025744133 -0.014843942 0.009276351
0001d0 99 07 8f 3c 51 c2 b7 bc d0 0b 62 3d bc 44 e4 3d
       0.017459678 -0.022431524 0.055187047 0.111459225
0001e0 b5 97 21 3d 2b 86 8e bd 5f f5 62 bd 30 35 2f bd
       0.03945132 -0.06959184 -0.055409785 -0.042775333
0001f0 1f 45 a5 bd e4 d1 77 bd 91 d8 7f 3c b3 d1 f9 3b
       -0.080698244 -0.0605029 0.015615598 0.007623875
000200 6d 0b a9 bd b7 29 8f bd 54 5f 5e bd 39 28 f3 bd
       -0.082541324 -0.06990378 -0.05429013 -0.11872906
000210 0f 5b 19 bd c5 43 1f 3e d8 10 68 3d 7b 42 8a bc
       -0.037440356 0.15553196 0.05665669 -0.016877403
000220 f9 d6 54 3b 14 8f 7e bd c9 b1 0b ba 74 7c ec 3c
       0.0032476767 -0.06214817 -0.0005328921 0.028867938
000230 86 e7 09 3d 39 35 c0 bc 6d 94 3c 3d 41 02 f0 bc
       0.033668064 -0.023462879 0.046039987 -0.02929795
000240 9e 4f f3 bc 8d ef 57 bc 75 df cb 3c 9a 5a ef 3d
       -0.02970105 -0.013179672 0.024886826 0.11687203
000250 81 b5 bc 3d dd 2b fe bd 32 1a 81 bd e3 d9 5a bd
       0.092143066 -0.1241071 -0.063038245 -0.05343045
000260 d4 cc 6b bd 3f 9e f1 bd 45 f7 ec 3c 40 84 24 bd
       -0.057568386 -0.11797761 0.028926501 -0.040165186
000270 f9 2c 74 bc b6 8a ff bd 9a 50 60 bc 1b 4e 7f bd
       -0.0149033 -0.12477629 -0.013691092 -0.062330347
000280 ec 0b 09 3e 7f 5d f4 3d 1a 0a be 3c ea d8 e7 bd
       0.13383454 0.119318955 0.023198176 -0.1132067
000290 51 46 12 bc 79 d8 03 bd 6c c4 6e bd 91 58 70 3d
       -0.008927898 -0.032188866 -0.05829279 0.058678214
0002a0 60 3e bb 3c 61 7f 00 bc e0 fa d7 bc 5d 9c fe bc
       0.022856891 -0.0078428695 -0.026364744 -0.03108042
0002b0 21 72 72 bd eb 7d 9d bd 83 6c 0a be fa 3e 35 3d
       -0.059190873 -0.076900326 -0.13517956 0.044249512
0002c0 7f 9c c5 3d c5 b4 0b bd 5c 50 41 3b f9 c8 29 bd
       0.0964899 -0.034107942 0.002949736 -0.041451428
0002d0 db 23 33 3d 77 9d 81 3d 30 42 c8 3d 5f f0 14 3d
       0.043735366 0.06328862 0.09778249 0.03636205
0002e0 2a 1c 60 bc a6 f9 40 3d 1b e4 54 3d 56 51 f5 3c
       -0.01367859 0.047113083 0.05197535 0.02994601
0002f0 c2 04 04 3e 00 41 ab 3d 7b 11 af bd 29 49 c6 bd
       0.1289244 0.08362007 -0.08548256 -0.09681923
000300 a6 84 bd 3c 60 92 96 3b 81 a4 7e bd 8b 59 88 3b
       0.02313454 0.004595086 -0.062168602 0.004161065
000310 dc 06 3d 3c 8d 6e ca ba 3a 34 b4 bc 3d 30 33 bd
       0.01153728 -0.0015444324 -0.02199756 -0.043747175
000320 c5 b6 21 be d7 51 27 be 8b 62 22 be 61 46 f8 3d
       -0.15792377 -0.16339813 -0.15857904 0.12122799
000330 22 fe 14 3e fc ac 92 bd 86 51 02 be f2 b8 97 bd
       0.14550069 -0.071619004 -0.12726411 -0.074083224
000340 d5 0e 95 bd ea 0a 2b bd 2e 21 01 3e 5d 1c e6 3d
       -0.072782196 -0.041758455 0.12610313 0.112358786
000350 8c ab d7 bd d0 68 26 be 0a 7e ce bd 5c 68 eb 3c
       -0.10530767 -0.1625092 -0.10082634 0.028736286
000360 c9 22 df 3d 1b b7 9f 3d c7 e5 6a bd ab 87 df bd
       0.108953066 0.077985965 -0.05734804 -0.109145485
000370 1b 9c 7c bd 86 72 b4 bb 01 d6 16 bd 91 8c 25 3c
       -0.06167231 -0.0055068163 -0.036825184 0.010104314
000380 c6 22 0e bd 66 66 a1 b9 d6 4c 76 bc 63 d1 66 bd
       -0.03470113 -0.00030784606 -0.015032968 -0.05635203
000390 e1 e7 0c be 36 16 89 be ed 49 39 be d4 b6 8f 3e
       -0.1376033 -0.26774758 -0.18094607 0.28069174
0003a0 3f e0 f2 3d ec 27 99 bc 48 e3 3f bd a0 1b b2 bd
       0.11859178 -0.018695794 -0.04684761 -0.08696675
0003b0 1a f0 87 bc 62 a9 fa 3d 3b 9f 5b 3d 9f c3 86 3c
       -0.016593982 0.122393385 0.05361865 0.016450701
0003c0 3f d8 f3 bd 46 6f 6e be 9f 23 44 be 23 70 36 3b
       -0.1190648 -0.23284635 -0.19154213 0.0027837835
0003d0 87 19 39 3e da c9 b0 bc e8 ee de bd 34 8a 46 be
       0.18076144 -0.021580625 -0.108854115 -0.19388658
0003e0 fd 62 cf bd 86 08 e3 bc a7 5d bb bc 3d 1b 76 bb
       -0.101263024 -0.027714025 -0.022871805 -0.0037552856
0003f0 29 b9 b8 bc d5 7b 83 bd cd 24 8c bd e4 31 f8 bd
       -0.022549229 -0.064201035 -0.06842957 -0.12118891

network.0.bias f4 [256]
000000 30 20 e3 bc 3e 6a d3 bd 35 a0 33 3b b2 09 8b bc
       -0.02772531 -0.103229985 0.0027408723 -0.016972397
000010 ae 18 9a bd 96 27 15 bd 1b 18 36 bd 22 7d b7 bd
       -0.075242385 -0.036414705 -0.044456583 -0.08959414
000020 5f fa 4c bd 51 80 2c bd 54 01 01 3c de a4 e1 3c
       -0.05004346 -0.04211456 0.007873852 0.027544435
000030 7c 10 84 bd b0 bf 17 b5 b4 e3 a7 32 b5 4f a2 bc
       -0.06448457 -5.6530826e-07 1.9544906e-08 -0.019813398
000040 2c da 05 bd c2 df d2 bc b3 27 39 bd 5f d4 65 bd
       -0.032678768 -0.025741462 -0.045203876 -0.056110736
000050 af 8a 4f 3d 34 de 20 bd d0 f5 dc bc 3e ea 12 bd
       0.05066937 -0.03927441 -0.026972681 -0.035867922
000060 bc 67 a3 bd c2 00 b3 3c 9d 3a 1f bd 86 38 44 3a
       -0.0797877 0.021850947 -0.038874257 0.0007485229
000070 ce 15 19 bc 46 e6 08 bd af 99 95 3d 8c ba 8c 3d
       -0.009343578 -0.03342273 0.073047034 0.068715185
000080 7d b0 6b bd 94 4c 79 bd f7 04 95 bd ef 5f 39 3c
       -0.05754136 -0.060864046 -0.072763376 0.011314376
000090 d8 de aa bd 1b a5 f0 3b d0 47 09 3d 8d 2b 07 bd
       -0.08343285 0.007343901 0.03351575 -0.033000518
0000a0 c4 a1 cd bb d0 ef 42 bd 78 8c 5b bd 9c 22 6d bc
       -0.0062753875 -0.047591984 -0.05360076 -0.014473584
0000b0 7d 67 2a 3d 0d 52 8b bd 8c 5e 00 bc 49 7c 5d 3c
       0.0416026 -0.06802759 -0.007835042 0.013518401
0000c0 b9 f0 b2 bd b9 ce a0 bc be 9d 86 bc 06 5f 0d 3d
       -0.087373205 -0.019629823 -0.01643264 0.03451445
0000d0 12 22 87 3d 3d 11 3b bd ce cc 3c bd 80 66 8c bc
       0.06598295 -0.045670737 -0.046093754 -0.01713872
0000e0 bd ae 7b 3c 53 a9 cd 3b 7f b7 de 38 85 16 e2 b5
       0.015361485 0.0062762885 0.00010619964 -1.6844866e-06
0000f0 d3 c7 32 bd 77 9e 95 bc 38 8b 7d bb 48 e8 c7 bd
       -0.0436476 -0.018264038 -0.0038687717 -0.09761101
000100 ad 69 92 bc 80 e5 a4 bc a7 d1 75 bd 74 18 95 bc
       -0.017872656 -0.020128965 -0.060014393 -0.018200137
000110 fd 87 e5 bc d2 c5 0e 3d f6 06 6b bc 0e 59 dd bd
       -0.028018946 0.034856625 -0.014344921 -0.108080015
000120 38 f9 ee bc 8f 30 2c bd 75 0b 42 3d 2e 77 15 bd
       -0.029171571 -0.042038497 0.047374208 -0.03649061
000130 2f 51 10 bd 35 72 48 bd 9e 16 92 bd c0 34 5a bd
       -0.035233673 -0.04893704 -0.0713322 -0.053272963
000140 de b3 78 bd af 48 94 bd 40 a0 8a 3a 2b 39 07 bd
       -0.06071841 -0.07240426 0.0010576323 -0.033013504
000150 d1 19 67 bd 93 28 8d bc 21 3a 4f 3b 14 2e b5 ba
       -0.056421105 -0.017231261 0.003162034 -0.0013822936
000160 48 91 11 bd b7 12 7e bd 97 6c fc bc a6 22 b6 bd
       -0.03553894 -0.062029567 -0.030813498 -0.088933274
000170 78 f3 97 bc 09 54 e9 bc ea 72 1d bd 1c 83 3a 3a
       -0.018548712 -0.028482454 -0.03843967 0.0007114874
000180 d3 1e 71 bd 63 c1 f8 3a 61 fb a7 bd c5 c1 a6 bd
       -0.058867287 0.0018978532 -0.082022436 -0.08142427
000190 9d 35 a4 3c b4 dd cc bd c5 20 a8 bc f3 5c cc 3c
       0.020045096 -0.10003224 -0.020523438 0.024946665
0001a0 00 c5 a9 bd a5 5d 65 bd 25 21 a9 bc 75 ad 91 bd
       -0.08289528 -0.05599751 -0.020645687 -0.071131624
0001b0 32 b2 8d bd 5e 99 79 bd cd 12 8a bd 15 9e 41 bd
       -0.06918754 -0.060937278 -0.06741867 -0.0472699
0001c0 39 00 51 bd 90 5c ae bd 0f 63 56 bd 97 75 c2 bc
       -0.051025603 -0.08513749 -0.052340563 -0.023737712
0001d0 c0 16 4a bd 36 f5 9d bc 96 77 bb bd 50 97 22 bd
       -0.049338102 -0.019281965 -0.091536686 -0.039695084
0001e0 aa 40 f2 bb 93 3b 8a 3d dd 96 1b 3c c1 d6 5e bd
       -0.0073929625 0.06749644 0.009496418 -0.054404024
0001f0 42 a2 c7 bd fe c0 d7 bc da 8e 66 bc eb 17 37 3c
       -0.09747745 -0.026337143 -0.014072144 0.011175136
000200 ef be 0f 3b 26 4b 74 bd c4 d4 b2 bc 96 3e 8f bb
       0.0021933874 -0.05964198 -0.02182997 -0.0043714745
000210 c0 f7 25 bd d6 51 09 bd 15 c3 13 bd 3f 48 1d 3d
       -0.040519476 -0.03352531 -0.036074717 0.038398977
000220 10 a9 d4 bc 62 a3 4e bd 07 4d df 3b 39 9c 8d bd
       -0.025959522 -0.050448783 0.0068146023 -0.06914563
000230 b5 3a 62 bd 76 99 ad bc 4c d4 25 bd d0 6f e4 bd
       -0.05523177 -0.02119134 -0.040485665 -0.11154139
000240 7d e1 d5 bd a9 ed a5 ba 8e 7c 15 bd f7 58 55 bd
       -0.10443399 -0.0012659329 -0.036495738 -0.052086797
000250 59 c0 1b bb 42 f3 85 bd 30 8d a0 bd ec 2e eb b9
       -0.0023765771 -0.06540538 -0.078394294 -0.00044857652
000260 52 97 fa bc 87 01 8f bd 74 a6 fc a1 fa e7 4f bd
       -0.030589733 -0.06982713 -1.7120244e-18 -0.05075834
000270 01 42 d3 3c 75 e3 98 3c 76 cc 26 b9 36 07 06 b2
       0.025788309 0.018663147 -0.00015907161 -7.801466e-09
000280 0a 22 3a bd 15 79 aa bc c2 13 1a bd 8f 74 08 bc
       -0.04544262 -0.02080969 -0.0376165 -0.008328571
000290 2e 89 ae 3b 7d fd cb bd fe 87 eb bc 8a 97 58 b6
       0.0053264117 -0.099604584 -0.02875137 -3.2274716e-06
0002a0 a4 f4 29 bd 0d 3b 88 bd 4c 69 09 bd 9b cd 3c bc
       -0.041493073 -0.06651888 -0.033547685 -0.01152363
0002b0 20 21 c3 bd a7 a8 7b 3b 64 ad 57 bd c5 21 3a bd
       -0.095278025 0.0038400085 -0.052655593 -0.04544236
0002c0 6f 09 a9 bd 79 6d a6 b7 b5 a5 bb bc f3 ea 8d bd
       -0.082537524 -1.983972e-05 -0.022906164 -0.06929579
0002d0 7c 0e cc bc 5c 6f 6b ba 4b e5 7f bc 9e 2a ee bc
       -0.02490925 -0.00089811324 -0.015618633 -0.029073056
0002e0 d4 48 a0 bd eb 19 fc a5 10 45 0b bd 45 e0 a0 bd
       -0.07826391 -4.3732594e-16 -0.03400141 -0.07855276
0002f0 a7 e2 d8 3b 59 67 26 bd c3 1b 66 3c 4a a8 8d bd
       0.006618816 -0.040625904 0.014044705 -0.06916864
000300 c0 b9 04 bc bd 94 3b 94 de 5f 3b bd 07 a6 8b bd
       -0.008100927 -9.470421e-27 -0.045745723 -0.068187766
000310 07 38 48 bd 8f ca 46 bd 45 2b 96 bc 95 e9 df bc
       -0.048881557 -0.04853302 -0.01833118 -0.02733306
000320 5f 20 32 bd 9b 1e ed bd d7 da 0b bd 1a c6 28 bd
       -0.043487903 -0.11578103 -0.03414425 -0.04120455
000330 4c a6 9b bd 1e d5 aa bb 1e 7f a8 33 d8 c9 b6 bb
       -0.07600078 -0.005213394 7.846232e-08 -0.005578261
000340 07 66 97 bd 98 96 05 3c c7 11 56 bd f5 6c bd bb
       -0.07392507 0.00815358 -0.052263048 -0.005780811
000350 77 81 82 bc 3b e9 17 3c 38 05 66 bd 1d 44 8c bd
       -0.015930874 0.009271915 -0.05615732 -0.06848929
000360 58 1f e2 bc ce c8 3a 3b 86 7e 3d ac 29 b5 2e bd
       -0.027602836 0.0028501037 -2.692875e-12 -0.042653237
000370 bf 71 f2 bc 6c 54 fc bc 88 d2 91 3b 36 5a 2a bd
       -0.029595254 -0.030801974 0.004450146 -0.041589938
000380 b1 46 5c bd 77 e9 76 bd 82 46 96 bc 2a 63 20 3d
       -0.053778354 -0.060281243 -0.018344168 0.03915707
000390 89 58 54 b0 6d 12 35 bc 5d 4a 8a bd e5 02 ba bb
       -7.7250967e-10 -0.011051756 -0.06752465 -0.0056766146
0003a0 57 bc 0f 2a 98 c4 a0 bd ac f5 86 bb ba 18 b7 bc
       1.2766295e-13 -0.07849997 -0.004118642 -0.022350658
0003b0 7a b2 5a bd ef cd 3e bd 61 86 f2 bd de ad ad 3c
       -0.053392865 -0.046583112 -0.11842037 0.02120107
0003c0 98 75 79 bd 04 55 b1 bc 08 10 97 b5 eb 95 e7 bc
       -0.06090316 -0.021646984 -1.1255042e-06 -0.028269729
0003d0 21 d1 71 bd cf 81 af bc 7a 88 31 bd 6c 72 78 bc
       -0.05903733 -0.021424202 -0.043343045 -0.015163999
0003e0 c6 18 87 3b a2 e6 62 bd a9 48 06 bd 05 50 1e bd
       0.0041228263 -0.05539573 -0.032784138 -0.03865053
0003f0 5f e6 38 3d e6 30 b1 3d 9b 81 d5 3a 09 00 2f bd
       0.045141574 0.08651905 0.0016289236 -0.042724643

network.3.weight f4 [128, 256]
000000 4d 27 15 bd 0f 61 59 bd 4f f0 fc bd 13 62 80 3c
       -0.036414433 -0.053071078 -0.12350523 0.015671765
000010 e7 d6 5b 3d b3 d0 d8 3c e4 60 0e 3e b5 1a 7e bd
       0.053671744 0.026466703 0.13904148 -0.06203719
000020 40 da 1d be 2d d4 f2 3d 88 9e 82 be dd ff d8 3d
       -0.15415287 0.118568756 -0.25511575 0.10595677
000030 17 74 79 bd b3 7e a0 3c 83 e8 c4 3b 61 7f 12 bd
       -0.060901728 0.019591665 0.006009163 -0.03576601
000040 eb 97 57 bc c1 e7 a1 bd 24 9e 9d 3c 93 a2 b1 bb
       -0.013158779 -0.07905532 0.019240446 -0.0054209917
000050 4d e3 a3 bd 5f 1b a5 3d e3 21 7f bd a7 27 10 bd
       -0.080023386 0.08061861 -0.062288176 -0.035194065
000060 23 73 56 bc 76 4c a2 bd 83 42 27 bd 5a 55 16 be
       -0.013088974 -0.0792474 -0.040834915 -0.14680997
000070 65 71 01 bb 49 c7 b4 bc ab 74 98 bd bf b7 c5 bd
       -0.0019751426 -0.022067683 -0.07444128 -0.096541874
000080 98 68 27 be cd 02 9b ba 96 13 2b be f6 59 b4 bb
       -0.16348493 -0.0011826396 -0.1670669 -0.0055038882
000090 3c dc 5f 3d 4f 4d 20 bd b6 9b 00 3e df 19 23 bd
       0.05465339 -0.039136227 0.12559399 -0.039819594
0000a0 1a 9d 01 3e 1a 62 00 3d 32 3b cf 3d 63 dd cd bd
       0.12657586 0.031343557 0.101187125 -0.10051992
0000b0 ce 0e 5a bd f6 99 fd 3d db 07 2d bc 88 4d 81 be
       -0.053236775 0.12382881 -0.010560955 -0.25254464
0000c0 70 72 10 3e ff 1a 1c bd a0 c0 ec 3c 7d 20 e8 3d
       0.14106154 -0.038111683 0.028900445 0.11334322
0000d0 4f c8 e9 3c 70 bb ad 3d 83 59 62 bd 9f 1d 92 bb
       0.028537897 0.084830165 -0.055261146 -0.0044590975
0000e0 28 32 ce bb 36 11 8f 3d 0b 2c 8e bd 91 14 c8 3b
       -0.0062926 0.069857046 -0.06941994 0.0061059673
0000f0 21 4f 86 bd 15 2e 43 3e 10 4a 0e bd 21 38 1d 3d
       -0.065580614 0.19060548 -0.0347386 0.038383607
000100 79 f8 9c 3d cb e2 bf bd 03 fe 4e 3d c8 70 41 be
       0.0766458 -0.09369429 0.050535213 -0.18890679
000110 44 64 ae ba 3f 8f 51 be be fa 29 3d 57 70 a3 3c
       -0.0013305028 -0.204648 0.041498892 0.019951029
000120 75 45 19 3d 59 4a f0 3c 89 3f 47 be cb e8 b1 3a
       0.037419755 0.029332327 -0.1945783 0.0013573406
000130 e0 27 0b bc a6 3f c2 bd 2a 1f 09 be 37 7d ab 3d
       -0.008493394 -0.09484796 -0.13390794 0.08373492
000140 4c 33 d2 3a 00 2b f8 3d ff af c7 3c 92 a9 09 bc
       0.0016037016 0.121175766 0.024375914 -0.008402245
000150 2d ec 32 3b 40 3a ae bd 5b 80 9e bc ed 48 15 bd
       0.0027301416 -0.08507204 -0.019348314 -0.0364465
000160 01 f8 9c bd 42 d2 16 3e 23 ef 79 bd 2e 3c 3e bd
       -0.076644905 0.14728644 -0.061019074 -0.04644411
000170 5e be 87 3d 15 f2 9a bd d0 44 4e 3d 28 79 47 bc
       0.066281065 -0.07565705 0.050358593 -0.012174882
000180 79 46 4c 3d ec bf 16 3d 31 24 01 be f7 d8 a4 bd
       0.049871895 0.036804125 -0.12611462 -0.08049195
000190 f2 d7 31 bd 10 70 fe bb 55 78 09 bd 92 1d 76 be
       -0.043418832 -0.0077648237 -0.033562023 -0.24034718
0001a0 e3 33 a4 3d 7b 2e 40 bd fa 01 0c be 98 f8 94 bc
       0.08017709 -0.046919327 -0.13672629 -0.018184945
0001b0 94 ab 07 3e 0f 33 68 bd 32 39 d5 3c 17 83 76 bc
       0.13249046 -0.05668932 0.02602825 -0.015045903
0001c0 a9 22 0f be 7c 46 fb 3d 4f ea af bc 13 59 71 be
       -0.13978066 0.12269303 -0.021474032 -0.23569135
0001d0 46 ea 5f bd a3 c7 b3 bd 5e 08 99 3c 62 97 99 3d
       -0.05466678 -0.08778312 0.018680748 0.07499577
0001e0 8f e0 bc bc 4c 7d 29 bd d8 96 3f be bc ba dd bc
       -0.023056297 -0.041379258 -0.18709886 -0.027066581
0001f0 28 43 e6 3c 7a c5 82 3d 8f 56 a5 3c d3 eb 7e 3d
       0.028108194 0.06385322 0.020182876 0.06223662
000200 e1 06 2d 3d 4a 18 52 bd 17 87 80 3d bf 3a 6b bd
       0.04224289 -0.051292695 0.06275766 -0.05742907
000210 af 89 72 bd dc 39 94 bd d1 5c 4b 3d 35 ff 93 3d
       -0.059213337 -0.07237598 0.049649063 0.07226411
000220 d7 7d 20 bd ad a7 34 3e 27 8d b1 bc 29 91 13 3d
       -0.03918251 0.17642088 -0.021673752 0.036027107
000230 16 73 5c 3d 54 36 e2 3c dd 1f 88 3d 44 88 51 3d
       0.053820692 0.027613796 0.066467024 0.051155344
000240 b6 ec 0f 3d 1e 8e ef 3b e4 a8 e2 3c 38 d0 0e be
       0.035137855 0.007310643 0.027668424 -0.13946617
000250 d8 54 33 3a 9a 8b 27 3e 79 eb c8 bc b0 8b 5c be
       0.0006840951 0.16361848 -0.024526345 -0.21537662
000260 d2 4f ed bd 76 87 be bc 9c 31 db b5 11 2b b1 bc
       -0.1158749 -0.023257952 -1.633121e-06 -0.021626981
000270 36 ea 12 3e f0 a6 3c 3c 3c ca 0d bc f3 73 d1 35
       0.14347157 0.01151441 -0.008654173 1.5605459e-06
000280 76 b8 e2 3c 39 e9 f9 3d fc 83 fb 3c cb 50 05 be
       0.027675848 0.12202687 0.030702583 -0.13019101
000290 5b ad 4a bc 1a 08 2a 3d e2 de 06 3d aa 42 d9 38
       -0.012370433 0.041511633 0.0329274 0.000103597835
0002a0 15 f6 af 3d 09 b4 31 bd 84 83 32 bb 73 e1 11 bc
       0.08591858 -0.043384586 -0.0027239034 -0.008903849
0002b0 7e e6 29 3d 78 4c fd 3d ff 6f d7 3d 03 e2 a9 3d
       0.04147958 0.12368101 0.105194084 0.082950614
0002c0 5f ec 8a 3d f2 68 49 3c ed ae c1 3b a9 c6 a4 bd
       0.067833655 0.012293087 0.0059107454 -0.08045704
0002d0 22 3a fa 3c b4 cc b0 3d e3 10 7b bc 29 13 8f bd
       0.030545298 0.08632794 -0.01532385 -0.069860764
0002e0 b1 01 09 be d6 73 58 af 03 b5 31 be 0d b5 ae 3d
       -0.13379551 -1.9686239e-10 -0.17354207 0.085306264
0002f0 d9 55 bf bc 1f 38 40 3e 97 49 ca bd 9d 55 38 3d
       -0.023356365 0.18771408 -0.098773174 0.045003522
000300 9f 48 73 3d 6d 57 94 81 6a e7 19 3d 56 24 ba 3d
       0.05939543 -5.4492064e-38 0.03757421 0.09088962
000310 8e e0 28 3d 6a cd eb 3d 46 15 1c bd 40 39 6b bc
       0.041229777 0.11513789 -0.038106225 -0.014356911
000320 a9 d3 8f 3c e9 8c 92 bc 8a 82 b4 3c e5 13 ea bc
       0.017556982 -0.017889457 0.022034902 -0.02857394
000330 55 60 72 3b d0 0c c6 3c 3c 30 38 3b ab 80 47 bd
       0.0036983688 0.024176031 0.0028104922 -0.04870669
000340 08 57 a4 3c b1 9c cb bd 1f 87 22 3e 44 23 76 3d
       0.020061031 -0.09941996 0.15871857 0.060092226
000350 c7 96 46 bc 9b 6a 91 be 62 66 b7 3a 3b ca e4 3d
       -0.012120909 -0.28401646 0.0013992304 0.11171385
000360 90 16 da bc d2 20 dd 3c 8d 46 89 9c e6 cf b5 3d
       -0.026622087 0.026993189 -9.084136e-22 0.08877544
000370 ce 1e 37 3d 22 e8 91 3c 0e 7d 4e 38 b2 8f 23 be
       0.044707112 0.017810885 4.9230694e-05 -0.15972784
000380 20 0a 81 bd 83 9f 51 3d 91 31 0d 3d 8b 77 37 bc
       -0.06300759 0.051177513 0.0344711 -0.011197935
000390 ff 7a f4 b3 68 b7 ab 3d 00 c5 16 3d ee ed 05 3d
       -1.1384508e-07 0.08384591 0.036808968 0.03269761
0003a0 81 64 27 a4 78 f0 99 bd 03 8b 67 3e 16 a4 69 be
       -3.6297483e-17 -0.07516569 0.22611623 -0.228165
0003b0 e9 28 b7 3d 41 21 5c bd 21 28 07 3d c1 0e ae be
       0.0894335 -0.05374265 0.032997254 -0.3399563
0003c0 64 fe 0d bb 3e 5b 14 be 9e 21 48 bc 78 e0 6b 3e
       -0.0021666521 -0.14487931 -0.012215046 0.23034847
0003d0 5f 57 88 bd 82 87 16 be 0f ef ec bc 08 b3 5b 3e
       -0.0665729 -0.1470013 -0.028922586 0.21455014
0003e0 7d f7 41 be ed 78 d1 bd df aa db 3c 03 23 f8 3c
       -0.18942066 -0.10228143 0.026814876 0.030290132
0003f0 7c ec 5d be 48 0c d1 3c a4 e3 ec bc e7 c9 65 3d
       -0.21672243 0.025518551 -0.028917141 0.056100752

network.3.bias f4 [128]
000000 24 7d 0d 3d a2 fa 96 3e c5 a4 31 3d 3e a6 f7 3d
       0.03454317 0.29488093 0.043370027 0.12092255
000010 93 76 86 3e 46 ee 0c 3e 65 7a 5a bd 3d a1 77 3e
       0.2626234 0.13762769 -0.05333938 0.24182601
000020 fe d9 28 3e 03 1e 33 be 98 a2 d1 bd 7d b1 2d 3e
       0.16489407 -0.17491917 -0.102360904 0.16962238
000030 e9 83 69 bd 2d 33 09 bd 8c 17 21 3e 6f f8 51 3e
       -0.057010565 -0.03349607 0.15731639 0.20504926
000040 17 22 5d 3e 7b b1 e8 3c 62 63 d3 3d cf 56 63 3e
       0.21595035 0.028404942 0.1032169 0.22201084
000050 20 bf 12 bd d7 89 9e 3e 4e 9f 6d 3e 45 6c df 3e
       -0.035826802 0.30964538 0.23205301 0.4363729
000060 7a ec 70 3d 6f 14 b6 3d 70 b9 85 3e e7 d5 4c 3e
       0.05881927 0.08890616 0.2611804 0.20003472
000070 66 22 8b bd 36 0b 66 3d d4 44 9d bd f8 81 70 3e
       -0.0679367 0.056163035 -0.076791435 0.23487079
000080 81 cb a8 bd 5d d2 86 bc cf 35 4a 3e ad 39 8d bc
       -0.0824194 -0.01645773 0.19747089 -0.017239416
000090 e2 ea 8b 3d 6e 96 30 3e 62 a5 54 bc 7d 0c 12 3e
       0.0683191 0.17244884 -0.012978883 0.14262576
0000a0 3d cf 03 3e 62 02 ae 3d eb a3 cc 3d 7f e0 78 3d
       0.12872024 0.08496548 0.09992202 0.06076097
0000b0 bf 3c db 3d 40 b2 8b 3e 02 9d 9f bd e9 14 2d 3e
       0.10704946 0.2728443 -0.07793619 0.16902508
0000c0 65 47 c3 3d b7 45 18 be bd fc 6f 3e bf 23 39 3e
       0.09535102 -0.14870344 0.23436256 0.18080042
0000d0 b0 f6 61 3e 7c 43 30 3c 85 72 6b 3e 52 4c 81 3d
       0.2206676 0.010758277 0.22992904 0.06313385
0000e0 2d a1 84 bd fa 1f e0 3d fc 12 65 3d 0d 6d d3 3d
       -0.06476054 0.10943599 0.055926308 0.10323534
0000f0 d6 37 84 3e 92 a1 dc 3c 2b 04 6b 3e 26 5e be 3d
       0.2582385 0.026932511 0.22950809 0.09295301
000100 00 55 a3 bd 74 bf ef 3d d1 be 36 be 8e e1 23 3e
       -0.07975197 0.11706439 -0.17846228 0.16004011
000110 ac 42 86 bd e4 85 55 3e 02 af 89 3e b9 fb c9 3d
       -0.065556854 0.20851856 0.26891333 0.098624654
000120 39 32 50 3d 25 96 86 bc e1 9a 93 3c 40 86 75 3e
       0.050829146 -0.016429016 0.018018188 0.23976994
000130 41 cf 04 3e 7c 34 25 3d 9f 66 d7 3d 9f b2 03 bd
       0.12969686 0.040333256 0.1051762 -0.03215277
000140 ae 95 72 3e 2e 8e 9a 3d 39 13 0d 3d a0 7e 67 3d
       0.23689911 0.0754665 0.03444216 0.056517243
000150 b8 2e f3 3d 32 0a 02 bd 74 f7 4b bd 9d aa 5e be
       0.11874145 -0.031748004 -0.049796537 -0.21744771
000160 96 12 a9 3d 80 5a d6 3c a7 a1 67 3d 0a 8c 86 3e
       0.08255498 0.0261662 0.056550648 0.26278716
000170 15 65 3b 3e 56 cb 05 3d 42 4d 18 bd 55 df 08 be
       0.18300278 0.03266462 -0.037183054 -0.13366444
000180 40 92 11 3e 95 16 b2 bd ef 68 6e bc 74 19 51 3e
       0.14215946 -0.086957134 -0.014551385 0.20419866
000190 7e 18 bf 3d cf b2 16 3e b2 74 0b 3e 99 32 d8 3d
       0.093308434 0.14716648 0.13618734 0.10556526
0001a0 b6 96 a6 3d 43 a4 02 bd 06 f1 24 ba 9d 0b 2a 3e
       0.081342146 -0.031894933 -0.0006292019 0.16605993
0001b0 40 22 30 3e 33 dc 9e 3d 3b 4d 81 3e e2 19 22 3d
       0.17200565 0.077568434 0.25254235 0.039575465
0001c0 17 7b 29 bc 02 da f8 bd c5 e7 1f 3d 41 03 38 3e
       -0.010344288 -0.12150957 0.039039392 0.17969991
0001d0 ec d4 80 3e e0 f2 e7 3d 19 08 3d 3e 2b 5a c9 bd
       0.25162446 0.113256216 0.1846012 -0.09831651
0001e0 d2 ba 96 3d 8f cd 19 3e cb a5 6a 3e ff 3d f7 3a
       0.07359852 0.1501982 0.22914807 0.0018863081
0001f0 f2 26 07 3e b0 ae 5f bc 8a 05 c7 3d 64 1e 65 be
       0.1319845 -0.013652489 0.09717853 -0.22374874

network.6.weight f4 [64, 128]
000000 3c ba cd bd 36 31 79 be 70 0e 4f bd 86 a1 cd 3d
       -0.10045287 -0.24335179 -0.050550878 0.10040574
000010 ad ec 0a 3d 7c 3a 0d bd f8 0a f8 3d e7 17 f8 bd
       0.033917118 -0.034479603 0.12111467 -0.12113934
000020 8a e7 49 be 31 f5 49 be 5f 75 b1 3d ef b2 91 bd
       -0.19717231 -0.1972244 0.08664965 -0.07114207
000030 c2 3a 12 3e 17 40 c0 3d a5 4f c5 bc 60 8a a9 3d
       0.14280227 0.09387224 -0.024085829 0.08278346
000040 f2 cc 48 bc c7 fc 89 3d 0a ca 71 be 04 de 96 3d
       -0.012255894 0.067376666 -0.23612228 0.07366565
000050 6d 04 f5 3d a2 9d 07 be e8 8a 14 be 6f cb ca bd
       0.11963735 -0.13243726 -0.14506114 -0.09902083
000060 34 34 e5 3d f0 6c dd 3d 10 75 56 3d fd 88 94 3d
       0.111915976 0.10811794 0.052357733 0.07252691
000070 a5 4c 04 3d 40 1f fd bd 35 d5 1a 3e 49 4e 04 3d
       0.032299656 -0.12359476 0.15120395 0.03230122
000080 47 8c 31 3e d4 4d 37 bd 0f b3 36 bd f0 1c 54 be
       0.17338668 -0.044751957 -0.044604357 -0.20714164
000090 4b 83 b5 bd e6 8c 3c 3d 55 0a 77 bd 57 0f 0c 3d
       -0.08862933 0.04603281 -0.060312588 0.034194317
0000a0 86 9e 93 3d 88 4c 39 3e e5 04 97 3d 1e 8a e4 bb
       0.0720797 0.180956 0.073739804 -0.0069744727
0000b0 76 35 76 be 0a 7a 04 be 5e cc f3 3d af cf 58 bd
       -0.24043831 -0.12937179 0.11904214 -0.052932438
0000c0 83 d2 79 3c ea e1 25 bd c2 a0 2a 3d b4 cb 65 be
       0.015247944 -0.04049865 0.041657217 -0.22440988
0000d0 69 4d 34 be a2 5c 0b 3e 19 23 80 bc a5 f9 f3 3b
       -0.17607655 0.13609555 -0.015641736 0.0074455314
0000e0 19 53 1f bd d3 a0 b5 bd 9a 18 70 3d e5 d3 91 bd
       -0.038897607 -0.088685654 0.058617212 -0.07120494
0000f0 b9 dc 65 bd 01 ef 80 be 0a 89 f0 3c 3e c8 9f bd
       -0.0561187 -0.25182346 0.02936222 -0.07801865
000100 aa 18 64 3b b8 c6 70 bc db c1 f6 3d c1 99 03 be
       0.003480474 -0.014695816 0.12048694 -0.12851621
000110 54 07 5a bd 95 02 c3 3d 68 7d c7 3d 76 05 06 3d
       -0.053229645 0.09521977 0.09740716 0.03272005
000120 cf f0 2c 3e 58 84 e6 3c 50 b5 b3 3d 97 1c a8 bd
       0.16888736 0.028139278 0.08774817 -0.08208578
000130 7c 8d 25 bd 13 1e 64 3d ad 78 5c bb 59 78 d2 3c
       -0.040418133 0.055692744 -0.0033641264 0.025692152
000140 64 cc b9 bd f9 fb f2 3d 6e b7 8c bd 5d 93 c3 3c
       -0.090721875 0.11864466 -0.06870924 0.02387398
000150 05 f6 29 bc 3c 87 75 3d 0e 49 4c 3d fd eb 1d 3d
       -0.010373597 0.059943423 0.049874358 0.038555134
000160 a8 2b aa bd 05 86 86 3d 6e 85 b1 bd a9 7b 6e bd
       -0.08309108 0.06568531 -0.08668028 -0.0582234
000170 5a 3e 21 bd 02 a3 b6 3d bb fb e0 3d a0 af ef bc
       -0.039366104 0.0891781 0.10985514 -0.02925855
000180 eb 35 4c bb 7d de 5d bd c1 0c 50 3e 61 8e bb bd
       -0.0031160067 -0.05416726 0.20317365 -0.09158016
000190 db de b3 bd e5 2e a2 bd b8 c8 10 3e 85 e2 d3 bb
       -0.08782741 -0.07919101 0.14139068 -0.006466212
0001a0 10 87 59 bd e6 22 bc 3d 37 5c a3 bc 74 e2 31 3d
       -0.05310732 0.09186344 -0.019941432 0.043428853
0001b0 bd 5c a9 bc d9 b9 50 be 6f 5c f5 bd 0a 0e 09 3d
       -0.020674104 -0.20383395 -0.11980521 0.033460654
0001c0 cc 08 5f 3c bd fa 93 3d b6 53 6c 3d 09 43 4e ba
       0.013612937 0.07225559 0.05769702 -0.00078682654
0001d0 46 e5 81 3d a2 d6 bf bd 50 7c 1a 3c ef d6 88 3d
       0.063425586 -0.0936711 0.0094290525 0.0668162
0001e0 fb a9 1e 3d 99 0d e6 3c 3c d5 09 3e 5c 38 f8 3c
       0.038736325 0.028082656 0.13460249 0.030300312
0001f0 fe d2 1f 3d 17 d0 7a bb 85 9f aa bd e3 f0 4d be
       0.039019577 -0.0038271004 -0.08331207 -0.20111422
000200 c5 ac b1 bc 6d 49 2a bd 89 31 38 be 69 86 18 3d
       -0.021688828 -0.04157393 -0.17987646 0.03723756
000210 93 6b a5 bd 9f 0e 71 3a ef d5 18 bb 61 66 a7 ba
       -0.08077159 0.0009195599 -0.0023320874 -0.00127716
000220 45 56 3f 3d f5 ff 0a bd 36 10 a6 bd 94 f8 7c be
       0.046713132 -0.033935506 -0.08108561 -0.247042
000230 78 83 28 3e bf fc 8a 3d 54 e7 35 3d 26 a4 48 bc
       0.16456401 0.06786489 0.044410065 -0.012246167
000240 e9 7c 2f bd 61 36 65 bd eb 34 78 3b cf 00 47 be
       -0.042843733 -0.055960063 0.0037873338 -0.19433902
000250 da 62 ef bc 10 ac 3c 3c 4c 60 e6 bc 06 0a 82 bb
       -0.02922194 0.011515632 -0.02812209 -0.00396848
000260 91 fa 37 3d 5d ed cb 3d 17 3e 06 3e ed 54 f9 3c
       0.044916693 0.09957383 0.13109623 0.030436004
000270 79 de 96 bb 8c 30 68 3d e4 eb 22 3e 12 fb cf bc
       -0.0046041575 0.056686923 0.15910298 -0.025388274
000280 be a8 12 bc 51 b5 28 bd 50 82 cb 3d 66 60 ac 3d
       -0.008951364 -0.04118854 0.099369645 0.08416824
000290 b8 9a 48 be 6a 45 9b 3c a0 58 53 3d 9d 41 74 bb
       -0.1959027 0.018953998 0.05159819 -0.0037270554
0002a0 7a 31 8c 3c 04 dc 3a 3e 0c f6 07 3e 5d dd 92 3b
       0.017113436 0.18247992 0.13277453 0.004481955
0002b0 ff 0a 26 bd f9 fd 81 3d 0d 54 07 3e 93 83 b8 3d
       -0.04053783 0.063472696 0.13215657 0.09009471
0002c0 1e 25 a9 bd ee 5c 9a bc 7f 8b c3 bc 34 41 1d be
       -0.08259033 -0.01884314 -0.023870228 -0.15356904
0002d0 fa b5 9c bd a5 f9 ea bc 0f b7 28 3d e7 66 fe bd
       -0.07651897 -0.028683493 0.041190203 -0.12421971
0002e0 a9 7d 60 bd 82 52 50 3c fb 18 3c 3d 87 f1 4c 3d
       -0.05480734 0.012714984 0.04592226 0.050035026
0002f0 39 4c 0f bd 75 07 12 bd 79 1b bf 3c 09 8a fb bd
       -0.0349848 -0.035651643 0.02332853 -0.122821875
000300 22 d6 c0 3c a7 87 15 3c b3 0f 50 bc b1 25 b1 bd
       0.023539606 0.00912658 -0.0126990555 -0.08649767
000310 d2 d3 85 3d 53 fc 4b 3d 8f f9 7d 3d d1 02 a5 3d
       0.06534542 0.049801182 0.062005576 0.08057178
000320 1e 89 23 3e 81 10 cf bd be 14 48 bd 51 38 80 be
       0.15970275 -0.1011057 -0.048847906 -0.25042966
000330 98 89 6d 3d 2f 7c 81 3d 51 43 d6 3d b6 b5 e3 bd
       0.057992548 0.06322514 0.10462058 -0.11118643
000340 f3 15 97 bd d2 56 83 bd 07 d8 89 be bf 84 d6 bc
       -0.07377233 -0.06413044 -0.26922628 -0.026186345
000350 0d 43 bc 3d c4 03 72 3d 7f af b2 3d 2d f8 c7 3d
       0.091924764 0.059085622 0.087248795 0.09764133
000360 6a d3 a9 3d b3 64 8e 3d 21 1f 41 be 99 72 92 bc
       0.08292277 0.069528006 -0.18859531 -0.01787691
000370 99 77 06 be ce 7a 3f bd e7 82 19 3c 6a e0 09 be
       -0.1313156 -0.046747975 0.009369588 -0.13464513
000380 40 9a db bd 87 88 8c 3d a2 67 1e 3e c1 2f 4d bd
       -0.1072278 0.06861978 0.1546922 -0.05009437
000390 2f b8 e1 bd 60 f1 b5 bc 02 9f 7f bc cb 43 f8 bd
       -0.11021458 -0.022209823 -0.015601875 -0.121223055
0003a0 3f 9c 65 bd b5 6e 69 3d 81 46 06 3c bf 64 4f 3c
       -0.05605721 0.056990344 0.00819552 0.012658297
0003b0 8d 57 01 bd 6f 1a 58 3d d0 f4 17 3d e7 41 26 3d
       -0.031577636 0.052759584 0.037098706 0.040590193
0003c0 44 ae f0 3c 5e 88 48 bc 0b 1b 2e be b3 3c 03 bd
       0.029379971 -0.012239544 -0.17002504 -0.03204031
0003d0 43 21 9f bc e4 f3 34 be ac 0d 33 bd f9 5a 0f 3e
       -0.01942504 -0.17671162 -0.04371421 0.13999547
0003e0 57 e2 46 bb e6 76 d0 3c a4 46 13 3e a2 0c 25 3d
       -0.0030347311 0.02544732 0.14382416 0.04029525
0003f0 79 0c 71 3d 51 99 ba 3d e5 94 95 3d c3 d0 01 3e
       0.058849785 0.09111274 0.0730379 0.12677293

network.6.bias f4 [64]
000000 ca cd 14 3e 1a 5a 7f 3e 05 c9 b2 3e f3 1a be 3e
       0.14531627 0.24936715 0.3491899 0.37129936
000010 fd e0 34 3e 58 c5 c3 3e a0 d4 b0 3e ac e2 33 3e
       0.17663951 0.382365 0.3453722 0.17566937
000020 a7 29 c1 3e 4c e1 7b 3e 4a 26 47 3e 50 45 2c 3e
       0.3772709 0.24597663 0.194482 0.16823316
000030 bd 8c fd 3d f9 c2 48 3e a9 96 ec 3e 2d 5e 4b 3e
       0.12380359 0.19605626 0.46208695 0.19860144
000040 25 cf aa 3e e6 d1 ab 3e 0c 99 ba 3e 46 ac f6 3e
       0.33361164 0.33558577 0.3644489 0.4817831
000050 48 cd 36 3e 26 7c a6 3e d3 3a bf 3e 2b 03 05 3f
       0.17851746 0.32516593 0.37349567 0.5195796
000060 76 d1 9b 3d e0 f8 e9 3e 75 89 ed 3e ac 14 f0 3e
       0.07608311 0.4569769 0.46393934 0.4689077
000070 7a 30 6e 3e d0 3d 9a 3e 0d d6 87 3e 72 01 c8 3e
       0.2326068 0.30125284 0.26530495 0.39063603
000080 88 15 3c 3e a0 55 75 3e 73 28 ab 3e c9 ac f6 3e
       0.18367589 0.23958445 0.33429298 0.481787
000090 d1 15 ce 3d 2c 14 0d 3e 73 5d bd 3e b2 10 df 3e
       0.10062755 0.13777226 0.3698536 0.43567425
0000a0 32 6e 84 3e ef c0 65 3e 6d ea b8 3e 46 74 72 3e
       0.25865322 0.2243688 0.36116353 0.23677167
0000b0 57 e8 73 3e dd 33 e0 3e 51 fb 4e 3e a3 dc af 3e
       0.238191 0.4378957 0.20213057 0.3434802
0000c0 eb 95 4a 3e 89 31 9f 3e d5 aa 7c 3e ee 0a 9a 3e
       0.19783752 0.3109248 0.24674542 0.30086464
0000d0 6f 74 88 3e 03 e7 92 3e f2 96 86 3e 05 dc 0b 3f
       0.26651332 0.28691873 0.26287037 0.546326
0000e0 96 13 76 3e 9b f9 6a 3e f0 74 db 3e 07 06 3b 3e
       0.24030909 0.2294678 0.42862654 0.18264018
0000f0 23 09 52 3e 41 cd 48 3e df 57 2d 3e 2f 7d de 3e
       0.20511298 0.19609548 0.16928051 0.43454883

network.9.weight f4 [10, 64]
000000 12 ea b9 bd b6 2e b7 bc a7 62 fe 3d 95 a3 db 3d
       -0.090778485 -0.02236114 0.1242116 0.1072456
000010 41 30 c4 3c 14 8c d5 bd ea ad aa bd 0a de d6 3d
       0.02394879 -0.104271084 -0.08333953 0.10491569
000020 0b 10 00 3d e5 be 07 3e 00 95 1a be 2b 03 af 3d
       0.0312653 0.13256414 -0.15095901 0.08545526
000030 6f 06 5e be 51 51 43 3b 10 cc 79 be e8 b3 81 bd
       -0.21682142 0.0029803107 -0.2439425 -0.063331425
000040 ce 12 87 3d 96 1f 9e bd 06 34 12 bd 42 5b 4f bd
       0.065953836 -0.07720868 -0.035694145 -0.05062414
000050 5c c0 24 be aa cb c5 3d 2e 05 db bd 45 3a 9e 3d
       -0.16089004 0.096579865 -0.10694347 0.07725958
000060 99 83 49 bd 90 5b 9e bd 81 15 c6 3d e0 9d 9c bd
       -0.049197767 -0.07732308 0.0967207 -0.076473
000070 bc ec 4e bd e0 17 13 3d 4c 79 88 3d ef 44 02 3d
       -0.050518736 0.03591144 0.066637605 0.03180402
000080 51 a6 ac 3d 4f 19 03 3d 1d fe da bd 49 3e e1 3d
       0.0843016 0.032006558 -0.106929995 0.10998208
000090 f8 bf 89 ba 02 1b 44 3d a8 60 4b 3d 28 a0 a9 be
       -0.0010509482 0.04787732 0.049652725 -0.33130002
0000a0 f8 8a ae 3d b0 02 4f be 7b 3c 81 bd c6 19 7f be
       0.085226 -0.20215869 -0.06310364 -0.24912176
0000b0 60 38 0f 3d 4b 81 6f bd 80 67 c2 bd 97 f5 08 3e
       0.034965873 -0.058472913 -0.09492397 0.13374935
0000c0 09 ba 24 be 1e 83 e3 bd 02 cf 05 be 47 83 cb bc
       -0.16086592 -0.11108993 -0.13067248 -0.024842871
0000d0 c7 c6 e6 3d 0b 81 c9 3d e2 b5 31 3d 0e eb b5 3d
       0.112683825 0.09839066 0.043386348 0.08882724
0000e0 92 97 9f bc 02 07 a4 bc 02 c2 70 3d c0 e0 2a be
       -0.019481454 -0.020022873 0.05877877 -0.16687298
0000f0 9d 88 bf 3d 39 0c 39 be 66 3d b9 3d 88 9c 82 3d
       0.09352229 -0.18071069 0.09044914 0.06377512
000100 59 57 e7 bd fc a3 b9 3d 82 e5 3a 3d 70 24 dc 3d
       -0.11295957 0.09064481 0.045629032 0.107491374
000110 34 2e 99 3d bf 7f 36 be f6 a2 82 3c 63 5a e9 3c
       0.07479516 -0.17822169 0.015946846 0.028485483
000120 bf af 00 3e 51 0f 00 be 30 eb 2e be 49 4a 4c be
       0.12567042 -0.12505843 -0.17081904 -0.19950213
000130 bb 19 a6 be ac 41 85 be 03 69 b3 be 38 01 aa bc
       -0.32441506 -0.26026666 -0.35041055 -0.020752534
000140 69 be 36 be 32 d1 d1 3d 00 bb e2 bd 96 e2 9b be
       -0.17846073 0.10244979 -0.11070824 -0.3044631
000150 c5 ed b4 bc 68 8f 06 3d 09 28 36 be 15 79 d9 3d
       -0.022086034 0.032851607 -0.1778871 0.10618798
000160 2f c7 5c bd 82 15 cd 3c 23 65 46 3a ae 8f 25 be
       -0.053900894 0.02503467 0.0007568171 -0.1616809
000170 5d 2d 85 3d 1d e2 97 3d 02 ec 2e be 86 25 70 be
       0.06502793 0.074161746 -0.17082217 -0.23451814
000180 25 56 8b 3d b3 6f c4 bd b5 84 ad 3d eb cd a0 bd
       0.0680354 -0.095916174 0.084725775 -0.07851776
000190 0e 1d 2a 3d e2 7d ae 3d 04 9c 15 be 94 ec 02 be
       0.041531615 0.08520104 -0.14610296 -0.1278556
0001a0 7a 86 8e be 35 a0 0e be ff 3b 88 be 61 5b 8e be
       -0.27836972 -0.13928302 -0.26608273 -0.27804092
0001b0 de 23 7c be 9c a5 7b bd 72 0e fc 3d 13 51 b9 bd
       -0.24623057 -0.061437234 0.12307443 -0.09048667
0001c0 0d 5c 7b be 13 60 62 be 39 cc bf be f8 b1 5d be
       -0.24546833 -0.22106962 -0.37460497 -0.21649921
0001d0 28 d5 0a 3e 50 50 03 3e 39 cb ae bd e0 b9 2b be
       0.13557875 0.12823606 -0.085348554 -0.16770124
0001e0 1a cb f5 3d 3a f9 a4 3d ab d6 8f be 79 9c 86 3d
       0.12001629 0.08055349 -0.28093466 0.065728135
0001f0 a0 4d c9 3d 66 13 d4 bb c1 df 37 be bd b6 cd bb
       0.09829259 -0.006472039 -0.17956449 -0.0062778876
000200 71 5a 4f be 92 d3 e9 bb df fb 9d bc db 1d cb 3d
       -0.20249344 -0.007135817 -0.01928514 0.09917804
000210 db 06 1a 3d bb 87 05 3d a0 c8 4f 3d 6d b7 e1 bb
       0.037604194 0.032600146 0.05072844 -0.006888321
000220 b5 68 16 3d e7 a3 17 bc 42 38 46 be b2 4b b2 3d
       0.03672095 -0.009255386 -0.19357398 0.08705844
000230 0d 5f c9 be 0d 20 02 3d be 3b b0 3d 06 a8 e7 bc
       -0.3933033 0.031768847 0.08605145 -0.028278362
000240 37 82 3f 3d fa 16 b0 3d cc 2b ae bd 2c 81 92 3d
       0.046755042 0.085981324 -0.08504447 0.07153544
000250 a8 97 63 3c 77 e3 ae bd 44 6b e4 3d 47 65 a0 3d
       0.013891138 -0.08539479 0.11153272 0.07831817
000260 dc 1c 47 be a1 98 04 3e 19 b3 b6 bc 4e d8 88 3d
       -0.19444603 0.12948848 -0.022302197 0.06681882
000270 a7 74 e6 bd 8a 08 37 3d 1f 6a ba 3d e7 a4 16 3c
       -0.112527184 0.044685878 0.09102272 0.009194589
000280 05 70 11 be 8a 93 25 3b 6c d7 bd 3d 0b 37 bb 3b
       -0.14202888 0.0025264942 0.09269604 0.0057133487
000290 5a ea 86 be 52 4c 25 bd 9f c3 05 3e 2a 5f 1b 3d
       -0.2635067 -0.040355988 0.13062905 0.037932552
0002a0 71 90 96 3d 59 76 64 be 40 59 9b 3d 42 31 78 be
       0.07351769 -0.22310771 0.075853825 -0.2423754
0002b0 fe 5e 8c bc f0 65 a3 bc a0 56 a6 3d b0 f7 a7 3c
       -0.01713514 -0.019946069 0.08121991 0.020503849
0002c0 97 2a 7b be b8 61 bb bd 80 a5 89 be fc 61 fe 3d
       -0.24527965 -0.09149498 -0.2688408 0.12421033
0002d0 76 52 ff bd 02 c9 a2 bd cc 9e b9 bd e6 f4 85 3d
       -0.124669 -0.079484954 -0.09063491 0.06540851
0002e0 62 e4 d6 bc 1b 1e ee 3d cd 20 e5 3d b1 f7 00 be
       -0.026231948 0.11626836 0.11187897 -0.12594487
0002f0 fe 82 e0 bd 73 d7 a2 be 8b 37 10 be 20 82 9c 3d
       -0.10962485 -0.31805 -0.14083688 0.07642007
000300 2c da fa 3c 70 cb c5 3d bc c2 f8 3d 1f 4c da bc
       0.03062161 0.09657943 0.12146518 -0.026647625
000310 ae 05 93 bd 96 c8 c9 be bb 01 a5 3d ba 0a cb 3d
       -0.07178818 -0.39410847 0.08056971 0.09914155
000320 7c 8f a7 3d 76 42 ff bc 20 46 d9 be bc aa 17 3b
       0.08181664 -0.03115962 -0.42436314 0.0023142537
000330 67 06 99 be f2 be dc be b1 15 36 3d 82 35 68 be
       -0.29887697 -0.4311443 0.04445428 -0.22676662
000340 bc cc 30 3c 97 b3 ba 3d 3f c4 cc 3c 7d 1d 57 be
       0.010791 0.09116285 0.024995921 -0.21007343
000350 10 e1 82 be fc ec ce 3d 72 f1 a8 3b 8a 33 88 3d
       -0.25562334 0.10103795 0.0051557356 0.06650455
000360 01 e5 79 be 04 7a e7 3d d7 8a ba 3d bc 34 3d be
       -0.24403764 0.113025695 0.09108513 -0.18477148
000370 33 bb e1 3c 96 d9 4d be 51 20 d9 3d c4 b9 ce bb
       0.027555084 -0.20102534 0.10601867 -0.006308766
000380 1f 0d 99 3d 42 bf e4 3c 56 fd da bd 5d c9 dc 3d
       0.07473206 0.02792323 -0.10692851 0.107805945
000390 70 06 b6 bc 04 6c a4 bd 69 50 45 3c 57 9e d7 3c
       -0.022219867 -0.08028415 0.012043097 0.02632062
0003a0 70 21 9b bd 8e bc 4f bd 58 66 ac bd a3 6f c7 be
       -0.07574737 -0.05071693 -0.08417958 -0.3895236
0003b0 33 6a 3b be 21 84 76 3d 25 ed d7 3d cf 7b 8b 3d
       -0.1830223 0.0601846 0.105432786 0.06810724
0003c0 7a 5f bb be b8 ec ea bd de 5e f7 bd 0e e9 c8 3d
       -0.3659628 -0.11470932 -0.12078641 0.09810077
0003d0 df da d9 3d 01 86 a6 3b 4a 86 0a 3d 4c e5 9d bd
       0.106374495 0.0050818925 0.033819474 -0.077097505
0003e0 57 81 a9 3d 9e 69 2e be 14 11 2a be 52 2c 23 3d
       0.08276623 -0.17032477 -0.16608077 0.03983719
0003f0 5f 93 ef 3d ad fe a1 bc 9c f6 04 be 64 65 ae 3d
       0.11698031 -0.01977476 -0.12984699 0.085154325

network.9.bias f4 [10]
000000 d6 67 13 be 4b a7 15 bf fe 3b 46 3d 25 b5 03 3e
       -0.14395079 -0.58458394 0.048397057 0.1286207
000010 d7 28 8f bb b8 54 74 be 6b 15 99 bd d1 c5 c8 3d
       -0.004368882 -0.23860443 -0.07474788 0.098033555
000020 a1 4f 83 3e 41 70 15 be
       0.2564669 -0.14593603
